model/model.pth (torch, 17216 bytes, 4 tensors)

linear1.weight f4 [256, 11]
000000 b7 4c 84 be d2 f3 f6 bc 53 e6 c3 3e 93 aa 58 bd
       -0.2583978 -0.03014556 0.3826166 -0.052897047
000010 22 ca 05 3e d5 e1 1b be 63 21 88 be 98 77 d1 3d
       0.13065389 -0.15222867 -0.26587972 0.10227889
000020 d2 df 3e 3d 7a 46 83 be d1 cd 89 be e6 38 36 3d
       0.04660017 -0.25639707 -0.26914838 0.044487856
000030 73 36 e1 3d 45 4b 9f be 45 9a 2f bd f6 a1 a2 be
       0.109967135 -0.31112114 -0.042871732 -0.3176419
000040 2e da 82 be 33 e5 da 3d 55 1c 73 be 57 23 50 be
       -0.25557083 0.106882475 -0.23741277 -0.20325981
000050 a2 39 7e 3d 7b dd 8d be d9 88 7c 3e 38 1a 80 bc
       0.06206668 -0.2770804 0.24661578 -0.015637502
000060 34 0c da bd b8 ff 70 be bf 1d 55 be 62 87 cd be
       -0.10646859 -0.23535049 -0.20812128 -0.4014235
000070 61 1b a9 3e 28 c2 86 bd 2a 84 70 be 21 6a 8b be
       0.330287 -0.06580001 -0.23487917 -0.27229407
000080 b3 99 0c bf f3 6e 51 3c a6 67 24 3e a6 50 6b 3a
       -0.54922026 0.0127828 0.16055164 0.0008976556
000090 ff 07 c8 bd da 54 b7 3e 59 64 9a be 77 aa 87 be
       -0.0976715 0.35806924 -0.30154684 -0.26497242
0000a0 07 74 59 be 9e c5 9d be 07 80 e4 3e 76 6e e5 3e
       -0.21235667 -0.30814832 0.44628927 0.44810838
0000b0 ae 35 ce 3d fb dd f3 3d 91 bf 40 be c0 f1 3c 3e
       0.10068832 0.11907574 -0.18823077 0.18451595
0000c0 a4 bc 76 be ef a2 1b be df 57 e5 3c 65 65 23 be
       -0.24095398 -0.15198873 0.027996002 -0.15956648
0000d0 f7 cf 50 be e1 dd d1 bd 06 1c 81 be b6 1d 1b 3e
       -0.20391832 -0.10247398 -0.25216693 0.15148053
0000e0 7a c7 e0 3d 1a 60 60 be d2 65 90 3e 81 ed 1e 3e
       0.10975547 -0.2191166 0.28202683 0.15520288
0000f0 5f 21 bc bd 20 eb 41 be 6e 33 8e be c1 37 d5 be
       -0.091860525 -0.1893735 -0.27773613 -0.416441
000100 8e 07 d8 3d 95 5e 9d 3e 91 62 02 3f 65 42 ae bd
       0.10548316 0.30736223 0.5093165 -0.085087575
000110 3f 59 59 3e 53 21 ba 3d 58 90 83 be a8 fa f0 bd
       0.21225451 0.09088387 -0.25696063 -0.11766559
000120 d0 11 84 3e 7a 99 ee bc 25 1f 33 be 4b 5c a5 be
       0.2579484 -0.029125918 -0.1749235 -0.32296976
000130 23 a0 85 bd 75 d2 60 be 7a af 3c be 6f d3 c7 3e
       -0.06524684 -0.21955283 -0.18426314 0.390285
000140 37 0c 33 bc 38 2e 8b 3e d6 a1 2b be 64 4b 8b 3e
       -0.010928205 0.271837 -0.16760954 0.27205956
000150 6a 4e 2b 3e 0a 32 1b be 3d 45 0b be c9 f5 0c be
       0.16729131 -0.15155807 -0.13600631 -0.13765635
000160 76 e0 d9 3e 4f a8 08 3f 39 8a 16 bf 5d 20 31 be
       0.42554063 0.5338182 -0.5880466 -0.17297502
000170 d2 1b 38 bd 29 84 fd bd 81 aa ba bd 03 9e 81 3e
       -0.044948407 -0.12378723 -0.09114552 0.25315866
000180 e3 63 a3 3e 88 00 b0 3e 81 77 98 3e 5c 17 03 3c
       0.31912145 0.34375405 0.29778674 0.008001175
000190 04 d1 1a 3f 9c b0 a9 be 19 62 ca bd 87 b8 ba bd
       0.6047518 -0.33142555 -0.09881992 -0.09117227
0001a0 65 74 3e 3e b7 3c d3 bd 8b f3 c9 3d 39 42 de bd
       0.18599088 -0.10314315 0.09860905 -0.10852475
0001b0 4e f2 37 3d f0 b8 c7 bd 19 55 5a be 68 ec 06 3f
       0.044908814 -0.09752071 -0.21321525 0.5270448
0001c0 9f 6c c8 be f6 b6 92 be f9 16 3d be 7b 02 a7 3e
       -0.3914537 -0.28655213 -0.18465795 0.3261908
0001d0 38 75 17 3e 2e 4a ad be 7e 1f de be f9 ef 8d 3e
       0.14790809 -0.33845657 -0.43383402 0.27722147
0001e0 c7 91 04 3e 76 60 86 3e c3 17 f1 be 70 6d ba 3d
       0.12946235 0.2624547 -0.4708844 0.09102905
0001f0 b0 47 a7 be 1e 06 ee 39 19 e5 a3 be 57 1c 4c 3e
       -0.3267188 0.00045399455 -0.32010725 0.19932686
000200 cc e2 9d bc f3 c8 e9 bd c1 b1 5c 3e 1c 98 a4 be
       -0.019273184 -0.11415281 0.21552183 -0.321473
000210 48 6f c5 3e 44 57 a7 3e 33 07 2a 3e 4e 5d 12 3e
       0.38561463 0.32683766 0.16604309 0.14293405
000220 1c e4 50 3d 5f db b5 be 8b ef e3 bd 25 2f b0 bb
       0.050998792 -0.3551893 -0.111296736 -0.005376714
000230 11 d8 dd 3b f4 1d b6 3e 6e 31 a6 3e 53 87 ce 3e
       0.006770142 0.35569727 0.32459587 0.4033762
000240 fc 5c 46 3e 51 11 4e 3e 8f da cc bd 13 2a d7 be
       0.19371408 0.20123793 -0.10002624 -0.42024288
000250 ae 57 b0 bd 81 75 8b 3e e9 90 a9 be a0 40 03 be
       -0.086104736 0.27238086 -0.3311837 -0.12817621
000260 3d e6 06 be 83 53 99 be c3 f1 b6 3e e0 14 e0 3e
       -0.13173766 -0.29946527 0.35731325 0.43765926
000270 38 90 99 3e 98 e2 5d ba c3 ad 1a 3c e3 29 e0 3d
       0.29992843 -0.0008464246 0.009440842 0.10945489
000280 97 95 03 bd 86 a1 34 be 0d 5a 05 be 4b df 35 be
       -0.032125082 -0.17639741 -0.13022633 -0.17760961
000290 f5 26 f8 bd bb f6 31 3e 0e 24 8e be 2c 1a 99 be
       -0.121168055 0.17379276 -0.27761883 -0.2990278
0002a0 68 6d a3 3e 36 a6 84 be c3 65 7d be 0b e6 1d 3e
       0.31919408 -0.2590806 -0.2474585 0.15419786
0002b0 51 66 bf bc ce 02 da be f3 d1 78 be 44 c9 89 be
       -0.023364218 -0.42580265 -0.2429884 -0.26911366
0002c0 13 66 2d be 03 ac ed 3e 76 47 bd 3e 5a f5 ae bc
       -0.1693347 0.46420297 0.36968583 -0.021357227
0002d0 f1 aa da 3d 29 9b 26 3d 14 41 40 be 0c 3d df be
       0.10677136 0.040675316 -0.18774825 -0.43601263
0002e0 0b 94 5a 3e d9 97 2f 3e 9e 8a 4c be db 1e 16 3d
       0.21345536 0.17147769 -0.19974753 0.03665052
0002f0 09 7e 8c 3d 72 e2 3c 3e 91 ab 5d be 69 0b 43 3e
       0.06859977 0.18445757 -0.21647479 0.19047321
000300 4f f3 7c be 3f d4 4a be ff 0f a5 be 20 cf 88 be
       -0.2470219 -0.19807528 -0.32238767 -0.26720524
000310 c0 d3 84 be 18 f3 1f 3e 5e 18 ec 3e 75 84 36 bf
       -0.25942802 0.15620077 0.4611234 -0.71295863
000320 2b 27 d5 3e 82 2f 06 3e bb de 44 3d 08 a0 2e 3d
       0.41631445 0.1310406 0.048063975 0.042633086
000330 b0 ec 9e 3e 18 6d 21 3d 03 ff c2 bd b6 ab 40 3e
       0.31039953 0.03941068 -0.09521296 0.18815503
000340 30 4d 8f 3e 72 45 04 bf 14 14 f7 3e 70 fb 9b bd
       0.27988577 -0.51668465 0.48257506 -0.07616317
000350 f7 99 18 bd ea 31 37 bd b6 82 0e 3e e9 10 72 be
       -0.037256207 -0.044725336 0.1391705 -0.23639263
000360 ac ad 56 3d ca ab 9b bd 47 10 a4 bc 85 5c 21 3d
       0.05241172 -0.076011255 -0.020027293 0.039394874
000370 00 5d f4 3e f8 c3 ed be db 77 c9 3e 08 ce 2e 3e
       0.47727203 -0.46438575 0.39349255 0.17070782
000380 93 a1 e2 3d bb c2 44 3e 84 26 18 bd 9d b0 30 be
       0.11065974 0.19214909 -0.037146106 -0.17254873
000390 30 d6 c0 bd 3c 4d 71 bd 4e 36 76 bd ea a7 cd be
       -0.09415853 -0.058911547 -0.060110383 -0.4016717
0003a0 5b 54 72 3e a7 b2 ba bd cc b4 17 bc f1 17 30 3e
       0.23664992 -0.091161065 -0.009259414 0.17196633
0003b0 ab b7 f6 bc 09 38 ec bd c6 6c 96 3d 5a 81 98 bc
       -0.030116877 -0.11534125 0.07344966 -0.018616367
0003c0 3f 10 58 be e6 52 71 3e 22 e1 87 3e 59 f3 8d 3e
       -0.21099947 0.2356678 0.2653895 0.27724722
0003d0 de 7c 8f be 0c 16 90 3e 94 a4 8e be e9 e3 d3 3d
       -0.28024954 0.2814182 -0.27859938 0.10346205
0003e0 fc ac 81 be fd 04 8b 3e 6d d0 b4 be 8b 92 6a bd
       -0.2532729 0.27152243 -0.35315266 -0.05726866
0003f0 23 57 b8 be 2b 44 88 be fe 67 34 3e 6e d7 39 3d
       -0.3600398 -0.26614508 0.17617795 0.045371465

linear1.bias f4 [256]
000000 f4 33 91 3e 6f 2b 4f bd 31 07 84 3e 35 1b 0e be
       0.2835995 -0.05057853 0.25786737 -0.13877566
000010 85 5a a2 be fd 48 59 bd b5 89 f4 3d a1 dd e5 3d
       -0.31709686 -0.053048123 0.11940328 0.11223913
000020 2f bf 33 be b3 a4 dc bd b0 a4 ae 3d 34 23 49 3d
       -0.175534 -0.107736014 0.085275054 0.049105838
000030 37 ed 9a bd c7 69 b4 bd cd 26 cb bd 63 af b9 3d
       -0.075647764 -0.08809238 -0.0991951 0.090666555
000040 a6 3c 69 3e 1a f4 1c be 57 92 08 bd cf 08 e4 3e
       0.22777042 -0.15327492 -0.033342686 0.4453797
000050 7d 12 28 3e 6a e7 bf 3d 5c a3 2b bd 86 11 0e be
       0.16413303 0.093703106 -0.04190384 -0.13873872
000060 58 1d 8e be 29 90 17 3e 7c da 7b be 4c cf 77 3e
       -0.27756763 0.14801086 -0.24595064 0.24200171
000070 da 1e 37 3e bf f3 1d 3e fb c8 a0 be 3d ed 52 be
       0.17882863 0.15425013 -0.31403336 -0.20598312
000080 86 86 67 3d 8f 73 b4 bd ad d0 23 3e 00 9d 21 3d
       0.056524776 -0.088111036 0.15997572 0.039456367
000090 dd 4d a6 bc ba ab 02 3e 05 61 01 be 12 ea 21 be
       -0.0203008 0.12760821 -0.12634666 -0.15811947
0000a0 a1 54 49 3e a2 c7 23 bd 98 08 2e be d8 83 58 be
       0.1966119 -0.039985307 -0.16995466 -0.21144044
0000b0 f0 3b 8e bb 79 d5 81 bd 22 85 09 be 10 a0 61 bd
       -0.004340641 -0.06339545 -0.13429692 -0.055084288
0000c0 52 b4 4d 3e e0 4d 2c 3e 08 fb cf 3c 6b e3 1a 3d
       0.20088318 0.16826582 0.025388256 0.03781454
0000d0 25 2f 81 bc 4b 8e 37 bd fe df 20 3e e6 fa 8e be
       -0.01576955 -0.044813436 0.15710446 -0.27925795
0000e0 db da 3e bd 7e e7 c3 be 50 59 c1 bc fe c1 ad be
       -0.046595436 -0.38262552 -0.023602158 -0.33937067
0000f0 0c d5 a9 3e 20 41 63 bd 78 e2 62 3d 46 82 44 3e
       0.33170354 -0.05548203 0.05539176 0.1919032
000100 47 a4 c6 3c a7 ce 4d be 17 22 0e 3e d5 b9 a8 bd
       0.024248255 -0.20098363 0.13880192 -0.0823857
000110 5e 6a 5c 3d 74 17 40 be 2e c9 38 3e 99 1b b2 be
       0.053812377 -0.18758947 0.18045494 -0.3478668
000120 d8 ba 97 bd 25 e5 67 3d c9 4f 61 3d c5 28 d7 bb
       -0.074086845 0.056615014 0.05500773 -0.0065661394
000130 3a f6 a9 bd 3d 8b 47 bd 4e d4 b2 bd 6c 3e 0b be
       -0.08298917 -0.048716772 -0.087319 -0.13598031
000140 89 55 0e be 1d 2a 65 3e 00 17 d5 bc 92 5b 58 3e
       -0.13899817 0.22379346 -0.026011944 0.21128681
000150 e6 7e ae 3e ba 94 98 3d 77 d3 73 be 01 0b 6e bd
       0.3408119 0.07450242 -0.23811136 -0.058115963
000160 eb f3 7a 3d 48 13 fb bd f4 dd 13 3e 62 cd 1a be
       0.061267775 -0.12259537 0.14440137 -0.1511741
000170 9b ae dc bb 6a b6 62 bd c4 6b 4e bd aa 58 f6 3d
       -0.006734682 -0.055349745 -0.050395742 0.1202863
000180 79 6e 81 3e cf 0a dd 3e 8f 59 87 bd c4 06 07 3e
       0.25279596 0.4317231 -0.06608879 0.13186175
000190 e4 74 d4 3c b5 fc fb bd 1c 8a 77 be 00 5c 2e 3e
       0.025934644 -0.123040594 -0.24173778 0.17027283
0001a0 7c b6 7f be 34 bc 4f be 55 fc 75 bd aa 29 27 bd
       -0.24971956 -0.20286638 -0.060055096 -0.04081122
0001b0 d5 a1 07 3e 86 48 a0 3d 8e ff 97 be 34 b0 a2 bd
       0.13245328 0.07826333 -0.2968716 -0.07943764
0001c0 24 df 7e 3e 57 d0 2c 3e 57 12 51 3e 50 7d 0d be
       0.24889809 0.1687635 0.20417152 -0.13817334
0001d0 0f ae f9 3c 67 30 71 3e cd d4 a2 be 51 99 5e be
       0.030478505 0.2355362 -0.3180298 -0.21738173
0001e0 1a 1e 3f 3e 23 50 26 3e 73 4c 09 be 62 e2 82 bd
       0.18663827 0.16241507 -0.1340807 -0.06390835
0001f0 d9 3c 77 bd 36 27 3d 3c bd 7f fa bb 93 85 91 3e
       -0.060360763 0.011544993 -0.007644622 0.28422222
000200 b8 20 63 bd a1 65 8c be c1 63 b8 be a9 21 4a 3e
       -0.055451125 -0.27421287 -0.36013606 0.19739403
000210 76 85 5b be d4 bb 14 be ff 5c 0c 3d 31 72 9b be
       -0.2143763 -0.14524776 0.034268375 -0.3036056
000220 4b 01 5d be 03 ea 81 bd d8 5d b7 be 62 68 c0 3e
       -0.21582524 -0.06343462 -0.35813785 0.37579638
000230 17 f2 93 3d 4d c8 97 bd b5 1e b7 3b fd 76 2b be
       0.07223909 -0.07411251 0.0055883774 -0.16744609
000240 db b3 1e bd 1f ba 97 be 45 1f 36 3e 6b ea 82 3d
       -0.038745742 -0.29634187 0.17785366 0.06392368
000250 9d 84 a6 be 0a ad 25 bd 5b ee 04 ba 5b b8 36 be
       -0.3252305 -0.040448226 -0.0005070918 -0.17843764
000260 67 55 ce 3e 7e 6f f9 bd 58 78 f6 bd fe 96 02 be
       0.40299532 -0.121794686 -0.120346725 -0.12752911
000270 7b 47 8e 3c a6 8d 72 3d bb 82 19 bd 2d 00 f1 bd
       0.017368069 0.059217118 -0.03747819 -0.11767612
000280 dc b6 a3 be db af 65 bd c3 30 20 be 60 38 5c 3c
       -0.31975448 -0.056075912 -0.15643601 0.013441175
000290 c9 ff 09 bd de dc 91 3e 1a 92 d2 3c 2d 13 c8 3c
       -0.0336912 0.2848882 0.025704432 0.024423206
0002a0 10 7b 26 be 83 d5 17 be 16 da 88 bc 8b f8 8b 3e
       -0.16257882 -0.14827542 -0.016705554 0.2733806
0002b0 7b 84 a0 be 7a ab 10 3e 30 eb 77 3d 77 f3 a6 bb
       -0.31351075 0.14127913 0.060527027 -0.0050949412
0002c0 84 09 5d 3e f8 2d 97 3d ff bd 92 be ca 91 fc 3d
       0.21585661 0.07381815 -0.2866058 0.123324946
0002d0 fd 0f 06 bd b6 97 10 3d 68 a0 d1 3c 2a 07 0e 3d
       -0.03273009 0.035300933 0.025589183 0.0346748
0002e0 d0 dd c8 3d 3d ac b0 be 1f d7 9f 3d 8a 6f 11 be
       0.098079324 -0.34506407 0.07804703 -0.14202705
0002f0 3b a9 f9 bd fb c0 82 3c 1b 23 98 be d4 10 e1 bc
       -0.12190481 0.01596116 -0.29714283 -0.027473845
000300 6a 6c 88 bd 3e b3 16 3d f5 c8 5e bd b2 ec b2 be
       -0.06661303 0.036792032 -0.054390866 -0.3494621
000310 5b de 28 be cc 59 95 3d 75 1b 32 3d c0 75 cb bc
       -0.16491072 0.07292518 0.043483216 -0.024836421
000320 53 5d 35 3d f0 3b 03 3e 4b b2 0e bd b7 3c 2b be
       0.044278454 0.12815833 -0.034838002 -0.1672238
000330 da f0 09 be 4e c8 04 be 1f 8a 6c be 4e 59 a0 3e
       -0.13470784 -0.12967035 -0.23099564 0.31318134
000340 b2 e0 18 3d 51 81 55 bc 88 b8 a4 ba da e3 6e be
       0.03732366 -0.01303132 -0.0012567202 -0.23329106
000350 39 b9 e2 3e 15 69 92 3e 6d 83 9a be 35 b0 30 be
       0.4428194 0.28595796 -0.30178395 -0.17254718
000360 46 b5 29 be 95 01 ac bd 36 67 2f be a4 d3 9d be
       -0.16573057 -0.08398739 -0.17129216 -0.3082553
000370 74 ea 59 be c3 7b 5b 3d 80 ad 2d be b3 59 34 be
       -0.21280843 0.053584825 -0.16960716 -0.17612343
000380 08 b2 d4 bd 70 8a 51 3d ff 65 8b bd 4a 1c 57 be
       -0.10385519 0.051157415 -0.068065636 -0.21006885
000390 a9 cd b6 3d c2 1c 44 3e 66 bd 9f be fa 0f 66 3d
       0.08925945 0.19151595 -0.31199187 0.05616758
0003a0 26 3f 8c be c8 a3 a0 bd 80 86 18 3e 6a 46 a3 bd
       -0.27391928 -0.07843739 0.14895058 -0.07972415
0003b0 93 9b 0e 3d b9 71 88 bd d8 31 45 be 7d 6c 40 3d
       0.034816336 -0.06662316 -0.19257295 0.046978462
0003c0 b6 bd 17 bd c1 ba b7 bc e6 fb ba bd d4 af f9 3d
       -0.037046157 -0.022427918 -0.09130077 0.1219174
0003d0 39 f4 61 3a 2c 69 7f 3d 1d 13 d4 3d cb d7 0e 3e
       0.0008619461 0.06235616 0.10355208 0.13949506
0003e0 0c 9d b9 ba ad af 9c 3e 07 31 7f 3e 20 67 10 3d
       -0.0014161183 0.3060278 0.24921046 0.035254598
0003f0 c1 55 c0 3e 14 cf 59 3e 5c 4a b6 bd cb 6d 87 bd
       0.37565425 0.212704 -0.08900902 -0.06612738

linear2.weight f4 [3, 256]
000000 32 0a 85 3e d5 f3 33 bd 82 fb f8 be 09 35 f8 be
       0.2598434 -0.04393371 -0.48629385 -0.48477963
000010 08 e9 20 3d 10 45 e4 be 1a b1 1f 3b 44 10 61 3e
       0.039284736 -0.4458394 0.0024367035 0.21978861
000020 9e 86 b0 be 99 da 97 3d 00 8f b3 3e 37 40 37 be
       -0.34477705 0.07414741 0.35070038 -0.1789559
000030 3e 77 63 be ec 4f 6a be 8f db f6 bc 1c f0 ab be
       -0.22213456 -0.2288205 -0.03013399 -0.33581626
000040 ec 21 35 3d c7 cc 0e be 4c 46 c6 bd 41 f9 8b 3e
       0.044221804 -0.13945304 -0.09681377 0.27338603
000050 f6 e8 98 3d 6d 01 18 3d 59 96 29 be 2c d4 e6 bb
       0.07466309 0.037110735 -0.1656126 -0.007044336
000060 b1 68 c1 3b 67 1b 4a bc 3b ec a9 be e0 1c 8b 3d
       0.0059023728 -0.012335635 -0.33188042 0.06792617
000070 ef 75 f3 bd c5 92 2d be 70 86 51 bd db 27 1d be
       -0.118877284 -0.1695052 -0.0511536 -0.15347235
000080 3a 94 b2 bd 8b 25 3b bd 4e de 24 be 20 3c 03 bd
       -0.08719678 -0.0456901 -0.16100428 -0.03203976
000090 2a 10 12 3b a3 6a 63 3e 0e 33 b9 bd 17 b4 f3 be
       0.0022287467 0.22208647 -0.09042941 -0.47598335
0000a0 8e 84 f6 39 af 43 e0 be 15 ed 26 bd a7 29 8e bd
       0.00047019537 -0.43801638 -0.040753443 -0.06941538
0000b0 a5 e8 27 3e f4 04 0a bf 7b e7 3c be e5 d0 ae 3d
       0.1639734 -0.5391381 -0.18447678 0.08535937
0000c0 f2 73 c1 be 9e 08 02 3e 0d 86 a1 bd 28 d2 43 bc
       -0.37783772 0.126986 -0.07886896 -0.011951961
0000d0 4d 27 6e be 90 83 b5 bd 29 21 8c 3e cc 49 8f bd
       -0.2325718 -0.08862984 0.2736905 -0.069964975
0000e0 ce 58 a2 be 56 89 04 3d 53 63 e1 bd 80 8d 3b 3d
       -0.31708378 0.032357536 -0.11005273 0.04578924
0000f0 31 8e 52 3e 7e a4 ce be 18 de 21 be a1 4c 4a bd
       0.20562054 -0.40359873 -0.15807378 -0.049389485
000100 dd ab 0d be 66 f2 23 be 54 62 cc bd 9b c9 1e bd
       -0.13835092 -0.16010436 -0.09979692 -0.038766485
000110 16 e4 09 3e 9e 2e 05 be 45 4a 82 3e 89 11 a5 3d
       0.13465914 -0.13006064 0.25447288 0.08059985
000120 32 18 a7 be 2b 0e 0f be 8d 14 cc 3d bc b9 c9 bd
       -0.32635647 -0.13970248 0.09964857 -0.09849879
000130 e1 af fb bc c4 7f e0 3b 88 8e a9 3d 1b ac 9c bc
       -0.030723514 0.0068511683 0.08279139 -0.019125035
000140 47 9b 9a 3e 84 09 93 3e 36 5f 97 bd 54 89 25 3e
       0.30196592 0.28718197 -0.07391207 0.16165668
000150 7f 8f 93 3e 8c 8d 70 3e 6e b8 5d 3d 10 19 2d bc
       0.28820416 0.23491496 0.054130964 -0.010565057
000160 9a 56 77 3b e9 75 c3 be d9 d4 8d 3d be 90 78 be
       0.0037740828 -0.38175896 0.06925363 -0.24273965
000170 db b2 8e be 4d 09 09 bb 83 20 44 3e 9c 8f 92 be
       -0.2787083 -0.0020910085 0.19153027 -0.2862519
000180 19 81 bd 3e 68 2c 94 3e b7 7a 4b be 2a 5a 7b 3e
       0.37012556 0.2894013 -0.19871031 0.24546114
000190 fb a2 8e 3e 3a 61 36 3e 29 a4 be be ba b2 ae 3e
       0.2785872 0.17810526 -0.3723462 0.34120733
0001a0 14 b4 b9 bc 7d d1 6b be 34 00 3c 3e 39 0e 3f be
       -0.022668876 -0.23029132 0.18359452 -0.1865777
0001b0 9c 9e 90 3d e3 f6 8f be 21 ef 93 3b 25 4c 18 3e
       0.07061502 -0.28118047 0.0045145904 0.14872797
0001c0 5b c1 16 3e fe 4d 10 bd e1 41 60 bd fc 38 e2 bd
       0.14722197 -0.03523063 -0.054750327 -0.11046025
0001d0 c4 e9 6c 3e cb fd 15 3e 91 be 7b bc b5 71 de be
       0.2313605 0.14647596 -0.015365259 -0.43446127
0001e0 0a 64 85 bc d5 af bd be e4 59 bc be 6b 4e 8a bb
       -0.016283054 -0.37048212 -0.3678733 -0.004220774
0001f0 2d 12 65 bd 4d 62 7f 3e a2 bf 9f bd 8a 0f 22 3e
       -0.055925537 0.24939843 -0.07800223 0.1582624
000200 f2 a9 0d 3e 9c cb a2 bc c0 43 a3 3b a5 9a 6f 3e
       0.1383436 -0.01987248 0.0049824417 0.23398836
000210 d5 28 3f bd b6 0d 24 be 57 b3 19 bc eb 89 79 3c
       -0.0466698 -0.16020855 -0.009381137 0.015230636
000220 7c 74 af be b1 43 8d be e5 ee 02 3d 0f df 64 3e
       -0.34268558 -0.27590707 0.03196611 0.22350715
000230 d7 c8 8f be 62 d9 a9 bd 15 fa 53 3d ab 14 a6 be
       -0.28082916 -0.082934156 0.05175217 -0.32437643
000240 dc 98 ee bd 44 22 d1 bc 4c d3 8f bd 15 89 7b bd
       -0.11650249 -0.025529034 -0.070227236 -0.06141003
000250 ab 59 b6 bc 27 47 bf bd 13 19 9a bd 90 20 a4 bd
       -0.022259554 -0.09339743 -0.07524314 -0.08014023
000260 20 c2 4c 3e 5b f2 c9 3d b3 b4 5d be b2 fd 0a 3c
       0.19995928 0.09860679 -0.21650963 0.008483337
000270 e1 d8 64 be d8 64 51 3e 52 20 ab 3d f8 60 2b be
       -0.22348358 0.20448625 0.08355774 -0.1673621
000280 66 47 26 bd 8b f5 8c bd c5 12 98 be bf ec 9a be
       -0.040595435 -0.06882771 -0.2970182 -0.30258748
000290 c8 2c 15 be 51 65 a9 3d c7 e5 ed bd 3a e2 4e bd
       -0.14567864 0.08271278 -0.11616092 -0.050508715
0002a0 60 7e 0f be 3f 5d b7 bd aa 82 4c be 2b e5 a6 3d
       -0.14013052 -0.08953332 -0.1997172 0.08149179
0002b0 2c bb 19 3d 82 87 c5 bd fe 25 ef 3d 7b af a3 be
       0.037532017 -0.09644987 0.11677168 -0.31969818
0002c0 6d ff 69 3e eb e3 89 3e 81 37 17 bd e4 45 a0 bc
       0.22851343 0.269317 -0.036918167 -0.019564576
0002d0 ec d1 0a be 83 64 88 be 48 e6 0d be 9a ba b7 bd
       -0.13556641 -0.26639184 -0.13857377 -0.08971138
0002e0 f1 9c 35 be c3 4a 96 3c 5e 9e 20 be 72 8a 8a 38
       -0.1773565 0.018346196 -0.15685412 6.60614e-05
0002f0 78 a1 a2 be 6d 1b f9 bd 38 34 92 be 9a e1 a3 bd
       -0.31763816 -0.12163434 -0.28555465 -0.080020145
000300 57 6c 91 3d d1 1f 06 be 41 ff 52 be 09 eb a6 3c
       0.07100742 -0.13098074 -0.20605184 0.020375745
000310 96 56 94 be c7 47 17 3d de da 69 be 39 40 40 3e
       -0.2897231 0.036933687 -0.22837397 0.18774499
000320 68 ed ea bd ce 0d 51 bd c7 c1 52 bd be 2d d0 be
       -0.11471063 -0.051038556 -0.05145433 -0.406599
000330 fd f3 7c be 16 3f 45 bd 87 81 45 be 29 45 4e bd
       -0.24702449 -0.048155867 -0.19287692 -0.050358925
000340 d7 99 83 3d 19 b7 12 be d1 98 d6 bd d5 be a3 be
       0.06425827 -0.14327659 -0.10478366 -0.3198153
000350 0b 29 64 3e 6c 54 aa 3e f3 a3 59 3d 18 fb 95 3e
       0.22281282 0.33267534 0.05313487 0.29293132
000360 9c 63 b1 be 73 9f da bd b5 33 53 be 22 7d 45 bc
       -0.34646308 -0.10674944 -0.20625193 -0.01205376
000370 f3 59 a3 3e 4c db 61 bd a4 a7 4e be 73 2f 32 3d
       0.31904563 -0.05514078 -0.20181137 0.043502282
000380 22 58 0a be 08 d8 6a bd 39 22 83 bd 8d 07 76 be
       -0.13510182 -0.05733493 -0.06403012 -0.24026318
000390 7d 5b 03 3f 52 de b7 bc 96 68 4f be 80 8b 75 bd
       0.51311475 -0.022444878 -0.2025474 -0.05994749
0003a0 0c ad 9f 3e e2 a3 3b 3e c8 c0 5f 3e f2 cd 84 be
       0.31186712 0.18324235 0.21850884 -0.25938374
0003b0 16 67 4a bd 07 fc b0 be 46 a0 e5 3b 44 2d 97 3e
       -0.049414717 -0.34567282 0.0070076315 0.29526722
0003c0 98 c1 de be d0 c2 2b be d1 cb 99 bd 50 1d cd 3d
       -0.43507075 -0.16773534 -0.07509578 0.100153565
0003d0 a6 58 13 3e 12 bc d8 bd 13 0b 0e be 1c 60 df bc
       0.14389285 -0.105827466 -0.13871412 -0.027267508
0003e0 d8 28 40 be 8a f2 b7 3d c0 75 22 3e af 1a c3 3e
       -0.1876558 0.089818075 0.1586523 0.38106295
0003f0 b0 79 9a 3e f4 6b 00 3d 26 68 2b be 26 99 8f 3e
       0.30170965 0.031352952 -0.16738948 0.2804653

linear2.bias f4 [3]
000000 61 75 e0 3d 71 88 79 bd d8 94 8a bd
       0.10959888 -0.060921136 -0.06766671
