model/model.pth (torch, 17216 bytes, 4 tensors)

linear1.weight f4 [256, 11]
0.023957308 -0.22943433 0.19837023 -0.2853706 0.23752053 0.05123247 -0.08789156 0.20356956
-0.2705593 0.045177545 -0.29388776 0.2008626 0.2645153 0.048453294 0.025774594 -0.19293994
-0.28378478 0.036177415 -0.27022555 0.28240684 -0.114357464 -0.12525193 -0.23467113 0.059466936
-0.05787423 0.089474045 0.2514462 0.25187975 0.08357501 0.106281824 0.10575616 -0.15879318
0.0851809 -0.13861755 0.19081382 -0.046437938 0.06703511 -0.26402926 0.2774065 0.16621721
0.12412655 -0.15661444 0.032647755 -0.29039818 0.2527742 -0.25775585 -0.11387359 0.13988006
-0.05720823 -0.11913801 -0.19867429 0.15758212 0.115575545 -0.17000169 0.28025603 0.1738962
0.04845456 -0.28201613 0.032905165 0.09825034 0.2948421 0.040539164 0.06860639 0.008904275
-0.1733356 0.064010926 0.15980026 -0.15172192 -0.24285568 -0.089213 0.2741602 0.01951844
-0.059335187 0.029355438 0.2167053 0.021572022 0.18650286 0.1334714 0.13976878 -0.07316719
0.16114703 0.18807237 0.023738762 0.13685383 -0.022414273 -0.0038028704 0.27539217 -0.14102252
-0.2334985 -0.020130878 0.20954256 0.1157187 0.15900326 0.18544842 -0.051044624 0.10868983
-0.085767485 -0.1782864 -0.23061281 0.07742481 0.2587896 -0.15318233 -0.27544367 0.1273233
-0.049534615 0.11477911 -0.1709081 -0.22785927 0.17463301 -0.014666887 -0.029187804 -0.2633517
-0.22998844 -0.09687842 -0.106188215 0.072453156 -0.23144443 0.20014267 0.08474568 -0.25354296
0.086734235 0.013743255 0.2743938 -0.04820626 0.12372226 -0.02133512 -0.2524705 0.26498392
-0.12314853 -0.031117417 -0.2243415 0.11508667 0.16025102 -0.024445673 -0.049377263 0.11975186
-0.039559152 -0.2585479 0.27476943 0.25097793 0.04052984 0.16849026 -0.03483287 0.27466035
-0.042670205 -0.17179576 0.0047365515 -0.110774934 -0.22594412 -0.23665768 0.012267643 0.17248717
-0.12980042 0.21072623 0.27527758 -0.1540895 0.17280397 -0.13417089 -0.2736646 -0.28161222
0.013577861 0.11154644 -0.07026775 0.06123868 -0.038506247 0.14054233 0.30315164 -0.1063005
0.08278828 0.1870006 -0.13031869 -0.11463968 0.05188322 0.0390365 -0.21407048 -0.018096292
-0.13401797 -0.22286482 0.026723156 0.18837395 -0.07503589 -0.20389111 -0.051379528 -0.224274
0.0206907 0.06785818 -0.05824486 0.005450507 0.044056278 -0.07441891 0.015895238 0.2714192
-0.07182086 0.08903459 -0.22394428 -0.0765291 0.08369517 0.15818833 -0.053916357 0.07006416
-0.2994573 -0.080934815 -0.15278924 -0.13870767 -0.20761168 0.067519926 0.13252941 0.14504741
0.24599612 0.102304995 -0.06658379 0.17617756 0.27119642 -0.054323856 0.11427258 -0.19693331
-0.3011987 -0.07843297 0.09871399 -0.07804124 0.20474817 -0.10221482 0.2471282 0.05272491
0.23645566 0.17949338 0.147528 0.27280164 0.04329759 0.17625701 -0.2331081 -0.19577706
-0.19899738 -0.0297314 -0.027515588 0.20131436 0.039713744 0.043513097 0.20157208 -0.23382656
-0.07866139 -0.14098307 0.2407615 -0.24314614 -0.22645509 0.088916756 0.038315937 -0.07522462
-0.24074666 -0.1863186 0.18639152 -0.1616888 0.17927693 0.18887512 -0.18117574 -0.12185661
00000000: 1e42 c43c d5f0 6abe 9121 4b3e 181c 92be
00000010: 9538 733e 23d9 513d 7d00 b4bd 8a74 503e
00000020: c086 8abe 170c 393d 7578 96be edae 4d3e
00000030: 8d6e 873e f676 463d 3e25 d33c 0c92 45be
00000040: 3d4c 91be c52e 143d 015b 8abe a197 903e
00000050: 3f34 eabd 0b42 00be a14d 70be 9a93 733d
00000060: 870d 6dbd 2b3e b73d 8ebd 803e 62f6 803e
00000070: 6029 ab3d 49aa d93d b096 d83d ae9a 22be
00000080: 5373 ae3d c2f1 0dbe b364 433e b535 3ebd
00000090: b449 893d d82e 87be 3a08 8e3e d834 2a3e
000000a0: 1036 fe3d 895f 20be a7b9 053d 12af 94be
000000b0: 9f6b 813e 93f8 83be 8f36 e9bd b83c 0f3e
000000c0: 2d53 6abd a1fe f3bd 4671 4bbe 355d 213e
000000d0: dfb2 ec3d ec14 2ebe b87d 8f3e d811 323e
000000e0: 4a78 463d 6b64 90be 91c7 063d 7937 c93d
000000f0: 8bf5 963e 650c 263d 8281 8c3d 3ce3 113c
00000100: e37e 31be 2918 833d aea2 233e fe5c 1bbe
00000110: 29af 78be 4eb5 b6bd ba5e 8c3e 23e5 9f3c
00000120: 7409 73bd d17a f03c ffe7 5d3e cfb7 b03c
00000130: 9bfa 3e3e baac 083e 8c1f 0f3e aed8 95bd
00000140: ba03 253e 0b96 403e cb77 c23c 6923 0c3e
00000150: 239e b7bc 9439 79bb 3400 8d3e 3568 10be
00000160: 3b1a 6fbe 83e9 a4bc 5392 563e edfd ec3d
00000170: c0d1 223e 31e6 3d3e 2b14 51bd c698 de3d
00000180: dda6 afbd b690 36be c425 6cbe e690 9e3d
00000190: 1280 843e d4db 1cbe f406 8dbe 0a61 023e
000001a0: cfe4 4abd 4f11 eb3d 8802 2fbe f153 69be
000001b0: ffd2 323e 624d 70bc 431b efbc 09d6 86be
000001c0: 1782 6bbe 3168 c6bd 3579 d9bd 5262 943d
000001d0: c5ff 6cbe 33f2 4c3e 258f ad3d 62d0 81be
000001e0: b8a1 b13d 642b 613c 587d 8c3e ed73 45bd
000001f0: 1962 fd3d fdc6 aebc d043 81be f9ab 873e
00000200: 4c35 fcbd f4e9 febc c7b9 65be 8fb2 eb3d
00000210: d818 243e 4b42 c8bc d03f 4abd 7740 f53d
00000220: c708 22bd 6460 84be 94ae 8c3e 2e80 803e
00000230: 9e02 263d b688 2c3e e9ac 0ebd 48a0 8c3e
00000240: f4c6 2ebd 3aeb 2fbe 1335 9b3b f8dd e2bd
00000250: e55d 67be 6456 72be 39fe 483c 7aa0 303e
00000260: 67ea 04be 9ec8 573e 2ff1 8c3e a3c9 1dbe
00000270: 86f3 303e 1864 09be c41d 8cbe 7a2f 90be
00000280: ad75 5e3c 7672 e43d 8ae8 8fbd 69d5 7a3d
00000290: bab8 1dbd 54ea 0f3e b136 9b3e 14b4 d9bd
000002a0: e78c a93d 167d 3f3e 4372 05be 35c8 eabd
000002b0: 8083 543d bde4 1f3d 4b35 5bbe ad3e 94bc
000002c0: 023c 09be ad36 64be 85ea da3c 1ae5 403e
000002d0: 6bac 99bd d5c8 50be 5773 52bd 15a8 65be
000002e0: 8b7f a93c 3bf9 8a3d 2a92 6ebd 2b9a b23b
000002f0: 5b74 343d f168 98bd bb36 823c 75f7 8a3e
00000300: d116 93bd c457 b63d a651 65be 4abb 9cbd
00000310: 6068 ab3d 1ffc 213e 66d7 5cbd cc7d 8f3d
00000320: 7852 99be 27c1 a5bd c874 1cbe 6209 0ebe
00000330: 2898 54be e347 8a3d cab5 073e 4f87 143e
00000340: 68e6 7b3e 4885 d13d 155d 88bd e467 343e
00000350: 42da 8a3e b182 5ebd be07 ea3d e3a8 49be
00000360: b736 9abe 77a1 a0bd 8f2a ca3d 16d4 9fbd
00000370: 81a9 513e 0156 d1bd 2d0f 7d3e 13f6 573d
00000380: 6f21 723e 1dcd 373e 9411 173e a8ac 8b3e
00000390: d058 313d b87c 343e e4b3 6ebe c879 48be
000003a0: f8c5 4bbe 448f f3bc 5f68 e1bc 5a25 4e3e
000003b0: e1aa 223d ca3a 323d e968 4e3e 3b70 6fbe
000003c0: 3919 a1bd de5d 10be 2f8a 763e 4dfb 78be
000003d0: d8e3 67be fd19 b63d 2cf1 1c3d 5e0f 9abd
000003e0: 4b86 76be 4eca 3ebe 6bdd 3e3e c091 25be
000003f0: 5f94 373e 7b68 413e 2286 39be f58f f9bd

linear1.bias f4 [256]
-0.21131092 -0.21839906 0.26523226 0.22573906 -0.054723248 0.16535962 -0.18742386 0.07238778
0.27992672 0.004747055 -0.016880859 -0.24446131 0.2097448 0.12971652 -0.05736187 0.09465295
0.1457184 0.25892624 0.012978792 0.07417731 0.039714947 -0.20452209 -0.291123 -0.2606121
-0.03823466 -0.26948786 -0.054362763 -0.21159166 0.2602455 -0.17753658 0.2515526 -0.108344026
0.29043543 0.2045748 0.18055122 -0.21510871 0.28193027 0.20594573 -0.30600762 0.24672279
-0.1582285 0.30542728 -0.2764156 0.035570405 0.19520798 -0.23876092 -0.19271593 -0.12095641
0.19885658 0.008982389 -0.2238508 -0.15136106 0.22588602 0.08357985 0.2529138 0.0075852685
0.132592 -0.12321755 -0.09513354 0.28252062 -0.06617411 0.15088934 -0.039184105 0.27332738
0.07276986 0.01195449 -0.27064955 0.12863874 0.12515154 -0.024582863 -0.12962069 -0.25726297
0.09672848 -0.012186281 -0.017473534 0.29483673 -0.25721037 -0.067385495 -0.27211156 -0.21893157
-0.28617984 -0.13140374 0.21068512 0.039315548 -0.19814853 0.24594371 -0.29620576 -0.062477194
-0.20076403 0.23384301 -0.13940361 -0.23732644 0.11724634 -0.29375452 -0.08486458 -0.20424818
0.1364036 -0.0010926209 -0.22147393 -0.13924731 0.17934398 0.06696707 0.039641455 0.10503052
-0.053249095 0.20083359 -0.23191239 0.22214402 0.27431443 -0.24088387 -0.08598791 0.17899862
-0.042602375 0.061518956 -0.14402957 0.15140595 0.01006794 -0.028123133 -0.29920766 -0.20732237
0.25197044 -0.21926957 0.28515777 -0.30687296 0.2430008 -0.24578439 -0.05457572 0.22740813
0.04624644 0.14995894 0.14164834 -0.27970776 -0.29535487 -0.18200403 -0.21747053 0.2555345
-0.056075256 0.19118112 0.21777189 -0.14673238 0.09801084 -0.0017288615 -0.03876586 0.12171832
0.22740577 -0.26560864 -0.20911208 -0.007461024 0.13096762 -0.22195686 0.1653742 -0.12304153
0.15533465 0.06921528 0.1684683 -0.18039899 -0.0060752514 -0.015538562 0.16719186 -0.15365611
-0.17909923 0.048964836 -0.09833758 0.24279338 0.18092692 -0.1298591 0.097681664 -0.07187931
0.21894197 -0.02696713 0.2650017 0.0918036 0.27138385 -0.046608552 0.15879533 0.19501866
-0.17122878 0.17004924 0.29799795 0.26023147 -0.06623012 0.24210033 -0.002562363 -0.1755018
0.091072164 -0.08456758 0.30805418 -0.26020828 0.04780542 -0.12877066 0.22291581 0.08366324
-0.28913987 -0.26568416 0.13934065 0.11013661 0.1490059 0.19030748 0.08704667 0.26397
-0.023102619 0.10426628 0.022508709 0.2203481 -0.19078463 0.09227377 0.12359724 -0.25785547
-0.041848257 -0.1729243 -0.07968287 -0.023619443 0.24113731 0.22912742 0.062288996 0.12056679
0.17904277 0.26808813 0.20457809 -0.23759177 -0.20258729 -0.20444097 -0.089556485 0.14375325
0.2796246 -0.004853317 -0.18176125 0.13508767 -0.30518338 -0.053944886 0.18972993 0.117502816
0.071274556 -0.0068882136 0.105988935 0.21147251 -0.1921088 -0.19564366 0.029973317 -0.17369522
0.18794306 0.19199415 0.27275226 0.19459192 0.2666993 0.11512766 0.029305113 0.2699379
0.1322693 -0.19433524 0.0015872753 -0.18281147 -0.059408378 -0.10867766 0.07965577 -0.00709097
00000000: e461 58be 01a4 5fbe 86cc 873e 2428 673e
00000010: 7c25 60bd 0854 293e 0aec 3fbe 0b40 943d
00000020: 8e52 8f3e 2f8d 9b3b ba49 8abc 1154 7abe
00000030: 57c7 563e 68d4 043e 48f4 6abd 68d9 c13d
00000040: 3437 153e fb91 843e 00a5 543c 46ea 973d
00000050: 24ac 223d 3d6e 51be 130e 95be f36e 85be
00000060: f29b 1cbd 50fa 89be 7dab 5ebd 7cab 58be
00000070: e63e 853e 26cc 35be 81cb 803e 79e3 ddbd
00000080: f4b3 943e 0e7c 513e 6be2 383e 7545 5cbe
00000090: 2a59 903e 70e3 523e 08ad 9cbe e6a4 7c3e
000000a0: a706 22be f760 9c3e 5886 8dbe 46b2 113d
000000b0: 9ae4 473e be7d 74be 5357 45be ffb7 f7bd
000000c0: 0fa1 4b3e df2a 133c 2539 65be 65fe 1abe
000000d0: aa4e 673e ea2b ab3d eb7d 813e d88d f83b
000000e0: 32c6 073e 7c59 fcbd 60d5 c2bd 8ba6 903e
000000f0: 4b86 87bd bc82 1a3e 837f 20bd 91f1 8b3e
00000100: 5d08 953d c4dc 433c 9492 8abe e0b9 033e
00000110: ba27 003e 0062 c9bc 49bb 04be f9b7 83be
00000120: 9519 c63d f8a8 47bc a824 8fbc d7f4 963e
00000130: 14b1 83be 6801 8abd 3552 8bbe 992f 60be
00000140: 2a86 92be b48e 06be d7bd 573e 5709 213d
00000150: 73e7 4abe abd8 7b3e 48a8 97be 16e8 7fbd
00000160: 1695 4dbe 8b74 6f3e d2bf 0ebe b405 73be
00000170: d91e f03d fe66 96be 7bcd adbd 6f26 51be
00000180: 63ad 0b3e 4636 8fba 10ca 62be d996 0ebe
00000190: f3a5 373e 0826 893d 145f 223d 3e1a d73d
000001a0: b91b 5abd 52a7 4d3e 717a 6dbe b979 633e
000001b0: f172 8c3e 43aa 76be 6e1a b0bd 6a4b 373e
000001c0: d47f 2ebd 4dfb 7b3d 7d7c 13be 290a 1b3e
000001d0: 00f4 243c 7c62 e6bc bf31 99be 514c 54be
000001e0: 4502 813e 3488 60be 3300 923e 741e 9dbe
000001f0: 34d5 783e e7ae 7bbe ca8a 5fbd addd 683e
00000200: e86c 3d3d d68e 193e 430c 113e db35 8fbe
00000210: c138 97be 445f 3abe 98b0 5ebe 6bd5 823e
00000220: 2baf 65bd fcc4 433e 98ff 5e3e 0341 16be
00000230: e8b9 c83d f79a e2ba f3c8 1ebd 7447 f93d
00000240: 0fdd 683e dbfd 87be 7a21 56be 9b7b f4bb
00000250: 601c 063e a948 63be db57 293e 33fd fbbd
00000260: 0c10 1f3e bec0 8d3d f482 2c3e 83ba 38be
00000270: e712 c7bb 7495 7ebc 5834 2b3e 0758 1dbe
00000280: ca65 37be 5a8f 483d 3765 c9bd d49e 783e
00000290: e844 393e c9f9 04be 530d c83d 7635 93bd
000002a0: 5332 603e 2cea dcbc 4eae 873e 8703 bc3d
000002b0: d3f2 8a3e 9ce8 3ebd 3e9b 223e f9b2 473e
000002c0: 9956 2fbe 6321 2e3e 3093 983e 0f3d 853e
000002d0: a8a3 87bd 26e9 773e 51ed 27bb beb6 33be
000002e0: 0b84 ba3d c431 adbd 47b9 9d3e 053a 85be
000002f0: 9ecf 433d 75dc 03be 0b44 643e a257 ab3d
00000300: 240a 94be c107 88be 51af 0e3e 4e8f e13d
00000310: 0195 183e f7df 423e 8645 b23d 1327 873e
00000320: b441 bdbc 8f89 d53d 2f64 b83c efa2 613e
00000330: 0c5d 43be 08fa bc3d 8d20 fd3d a205 84be
00000340: 1469 2bbd 1113 31be c630 a3bd 907d c1bc
00000350: b3ec 763e 61a0 6a3e bf22 7f3d b9eb f63d
00000360: fd56 373e d942 893e eb7c 513e 424b 73be
00000370: 0b73 4fbe f958 51be 6469 b7bd 0d34 133e
00000380: f52a 8f3e 9308 9fbb 9f1f 3abe 6c54 0a3e
00000390: ff40 9cbe 50f5 5cbd 9048 423e 51a5 f03d
000003a0: 65f8 913d 86b6 e1bb ba10 d93d 408c 583e
000003b0: 2bb8 44be d056 48be 9a8a f53c 29dd 31be
000003c0: 2574 403e 1d9a 443e 2fa6 8b3e 1b43 473e
000003d0: d08c 883e 0dc8 eb3d 4711 f03c 4d35 8a3e
000003e0: 9a71 073e d1ff 46be 1f0c d03a ee32 3bbe
000003f0: 3356 73bd 6592 debd 9022 a33d 5e5b e8bb

linear2.weight f4 [3, 256]
0.05147107 0.03339351 -0.055927157 -0.010710078 -0.014469242 -0.017501278 -0.053457245 0.012484787
0.048307568 0.041264284 0.05591509 -0.012229085 -0.06301337 -0.054829262 0.02065058 0.0033603215
-0.026793765 -0.0387504 0.02021678 -0.048875794 -0.010900979 0.012397588 -0.010148795 -0.055876113
0.036750983 0.005554631 -0.036363576 -0.05324825 -0.00052917853 0.020797605 -0.023209408 -0.034835618
0.012832691 -0.043728966 0.046231683 -0.039938018 -0.012994103 0.055619724 -0.04171866 0.029566884
0.004254048 -0.026903728 -0.024548952 -0.060172036 -0.0084135365 -0.026982032 -0.031879783 0.032925997
-0.017655052 -0.028770853 0.00022447953 0.059236825 -0.028102806 -0.019712605 -0.03739531 0.025173683
0.033453744 0.024728857 -0.031105034 -0.038513456 -0.06735669 0.008284904 0.051106468 -0.060003497
-0.02069283 -0.0118855275 -0.03897675 -0.0048092734 0.009681616 -0.028411463 0.027253615 -0.009753615
0.0012660476 -0.024680622 -0.014714594 -0.007874226 0.035327345 0.08441184 0.06439141 -0.039148174
-0.01746282 -0.020892557 0.039514683 -0.012894461 0.0044274842 -0.029137272 -0.00019358099 -0.010789079
0.015796615 -0.06270553 -0.009815281 -0.03026627 0.037018538 0.049720846 -0.045418423 -0.0013059825
-0.037652183 -0.030505285 0.029807225 -0.04776382 0.022562623 0.058271725 0.074015826 -0.016760658
0.0067925514 0.0033736532 -0.0076103956 -0.020613397 -0.024370335 -0.00023974129 0.047232617 -0.058241975
-0.04480859 -0.03532065 0.044620708 -0.004380835 0.0125297 -0.023122314 0.017172828 0.03740495
-0.043006968 -0.014515869 -0.01855953 -0.0013858468 0.03754279 0.018794775 0.042739216 -0.029049365
0.021701587 -0.024049966 0.07305522 -0.005087443 0.0003989752 -0.028224729 -0.052909896 -0.023332579
-0.01437984 -0.009280136 -0.047671147 0.06287174 -0.07730424 0.0014625217 -0.079694726 0.035545647
0.038501494 -0.053017765 -0.011117756 0.013552978 -0.024674263 -0.011720223 -0.03287508 -0.03795143
-0.009783743 0.01401 -0.029881032 0.055862844 -0.0062731877 0.03480568 -0.064824134 -0.066547625
-0.05238888 -0.07255084 0.060528412 0.0516815 0.044292033 -0.017547565 -0.013091045 -0.018199675
-0.0013056899 0.033491943 0.0016131935 -0.04320222 -0.03857051 0.0026737386 0.051385045 -0.032707207
0.00791082 0.018686457 0.0124301035 0.030641092 0.056806237 -0.040797777 -0.0031750696 0.038514093
0.014715338 0.011117129 -0.05805194 0.012097411 -0.030507492 0.0018194194 -0.0041975877 -0.057744082
0.0056574214 0.016579162 0.009296851 0.032205224 0.04285805 -0.002883769 0.013704425 -0.061255086
-0.032096714 0.04498153 -0.049711514 -0.049919415 -0.04121684 0.0349647 -0.04037858 -0.059740625
0.025177289 0.05341969 0.063184015 -0.017109059 0.017141834 0.018324198 -0.036614247 0.061002526
-0.048225973 0.005298278 -0.024013968 -0.00501263 0.061658975 0.060615882 -0.043552425 -0.06767618
0.028324502 0.0153403245 -0.019154511 -0.015656931 0.006743091 -0.046838757 0.03071483 -0.00025850628
-0.011688719 -0.051420975 0.00869766 0.015499203 0.067164876 0.06992027 -0.012366044 -0.07220034
-0.0540676 -0.052952625 -0.021149067 0.026021283 0.016561156 0.013201087 -0.06847706 -0.012530243
-0.04112983 0.0036830988 -0.0017219004 0.028823452 -0.02885963 0.056696028 0.029257705 0.029001066
00000000: 54d3 523d a2c7 083d e013 65bd 5379 2fbc
00000010: 6610 6dbc d75e 8fbc fcf5 5abd fe8c 4c3c
00000020: 28de 453d bd04 293d 3907 653d 805c 48bc
00000030: 270d 81bd a694 60bd 682b a93c d738 5c3b
00000040: 997e dbbc bdb8 1ebd a99d a53c fc31 48bd
00000050: 059a 32bc 411f 4b3c 2247 26bc 5ade 64bd
00000060: 3388 163d 9f03 b63b f9f1 14bd d61a 5abd
00000070: 92b8 0aba bd5f aa3c a821 bebc cbaf 0ebd
00000080: 3540 523c 251d 33bd 6f5d 3d3d 0c96 23bd
00000090: 38e5 54bc 82d1 633d 30e1 2abd 4036 f23c
000000a0: 8b65 8b3b 3565 dcbc e21a c9bc f476 76bd
000000b0: eed8 09bc 6c09 ddbc 6094 02bd 69dd 063d
000000c0: 54a1 90bc dab0 ebbc 4462 6b39 50a2 723d
000000d0: db37 e6bc 547c a1bc d32b 19bd 0a39 ce3c
000000e0: cb06 093d 2c94 ca3c fccf febc 49c0 1dbd
000000f0: 4ef2 89bd 68bd 073c 0455 513d 3ac6 75bd
00000100: 0384 a9bc 84bb 42bc 16a6 1fbd 1c97 9dbb
00000110: a49f 1e3c 28bf e8bc f942 df3c a0cd 1fbc
00000120: 82f1 a53a 042f cabc 7b15 71bc e602 01bc
00000130: 68b3 103d 1de0 ac3d a5df 833d d659 20bd
00000140: 300e 8fbc de26 abbc 26da 213d 4a43 53bc
00000150: 6e14 913b 4ab1 eebc 00fc 4ab9 adc4 30bc
00000160: e767 813c c26b 80bd 46d0 20bc f8f0 f7bc
00000170: c0a0 173d 16a8 4b3d ab08 3abd 802d abba
00000180: 2d39 1abd 38e6 f9bc 482e f43c ffa3 43bd
00000190: 40d5 b83c 55ae 6e3d 9c95 973d a64d 89bc
000001a0: 0d94 de3b 8218 5d3b a060 f9bb 6ddd a8bc
000001b0: 4ca4 c7bc 1063 7bb9 fd76 413d 238f 6ebd
000001c0: 3689 37bd 63ac 10bd 34c4 363d 1c8d 8fbb
000001d0: 5f49 4d3c 026b bdbc 08ae 8c3c ef35 193d
000001e0: 1328 30bd f8d3 6dbc 280a 98bc 4da5 b5ba
000001f0: 78c6 193d 80f7 993c 510f 2f3d eff8 edbc
00000200: 87c7 b13c 6f04 c5bc fa9d 953d 91b4 a6bb
00000210: 8b2d d139 8c37 e7bc 0cb8 58bd f723 bfbc
00000220: 6c99 6bbc b60b 18bc d242 43bd e6c2 803d
00000230: af51 9ebd 16b2 bf3a fd36 a3bd 5098 113d
00000240: beb3 1d3d 2829 59bd 4027 36bc 4f0d 5e3c
00000250: ae21 cabc 2e06 40bc 05a8 06bd f572 1bbd
00000260: fe4b 20bc 338a 653c 11c9 f4bc 70d0 643d
00000270: 508f cdbb 6790 0e3d 84c2 84bd 1f4a 88bd
00000280: b995 56bd 8995 94bd a4ec 773d fbaf 533d
00000290: 906b 353d e9bf 8fbc d37b 56bc 7c17 95bc
000002a0: af23 abba d92e 093d cb71 d33a d0f4 30bd
000002b0: 1cfc 1dbd e439 2f3b 2079 523d fef7 05bd
000002c0: 629c 013c 5714 993c a2a7 4b3c 0703 fb3c
000002d0: a8ad 683d 921b 27bd d414 50bb f4c0 1d3d
000002e0: 9a18 713c 9e24 363c dfc7 6dbd 3834 463c
000002f0: d9ea f9bc 9679 ee3a eb8b 89bb 0f85 6cbd
00000300: e461 b93b 06d1 873c d251 183c a0e9 033d
00000310: ec8b 2f3d 9efd 3cbb 8688 603c 9de6 7abd
00000320: d877 03bd 8e3e 383d 4d9e 4bbd 4d78 4cbd
00000330: fdd2 28bd 2537 0f3d 0364 25bd 96b2 74bd
00000340: 9a40 ce3c 9bce 5a3d 9f66 813d 4c28 8cbc
00000350: 086d 8c3c a11c 963c d2f8 15bd c9dd 793d
00000360: 9988 45bd 2d9d ad3b f1b8 c4bc fd40 a4bb
00000370: 1f8e 7c3d 5c48 783d 0764 32bd cf99 8abd
00000380: c908 e83c fc55 7b3c ece9 9cbc f742 80bc
00000390: 26f5 dc3b ffd9 3fbd ab9d fb3c 2088 87b9
000003a0: 0a82 3fbc cd9e 52bd a180 0e3c 5ef0 7d3c
000003b0: bd8d 893d 5c32 8f3d f39a 4abc c6dd 93bd
000003c0: fd75 5dbd dae4 58bd cf40 adbc 962a d53c
000003d0: 43ab 873c 5f49 583c b33d 8cbd a64b 4dbc
000003e0: c177 28bd 2560 713b 64b1 e1ba 291f ec3c
000003f0: 086b ecbc 183a 683d dbad ef3c a593 ed3c

linear2.bias f4 [3]
0.009420041 -0.031658165 -0.025842318
00000000: 8456 1a3c feab 01bd 45b3 d3bc
