model/model.pth (torch, 71472 bytes, 4 tensors)

linear1.weight f4 [256, 30]
0.060357932 -0.13799569 0.011235188 -0.51385015 -0.3064961 -0.062060907 0.07818124 -0.14690827
0.09385744 -0.46711227 0.05984506 0.035124592 -0.17608455 -0.2284691 0.2030176 -0.093188986
-0.89572835 -0.5019701 -0.41719157 -0.06461869 -0.11831038 0.1931902 -0.12343678 0.07367639
-0.24672815 -0.4920081 -0.05958624 -0.18579085 -0.8353009 -1.3531334 -0.1336663 0.0899344
-0.1547837 -0.023179742 0.14742835 -0.0704568 0.052326392 0.04594762 -0.106444545 -0.14136644
0.09885729 -0.16110636 0.105010316 -0.039912798 0.00032653194 0.1720447 -0.15946881 -0.1347244
-0.10192671 0.027393345 -0.17748994 -0.13966899 -0.0066938144 -0.10164052 -0.048342697 -0.12084166
-0.0734605 0.009399075 -0.16469091 -0.120782115 -0.28217745 -0.17108177 -0.22061649 0.28184935
-0.053797487 -0.51196676 -0.114913195 -0.33753207 -0.23918048 -0.1792889 -0.4287547 -0.28830498
-0.35091913 -0.26012862 -0.024393082 0.14689374 -0.12142497 -0.003842 0.053403493 -0.2891697
-0.0018316875 -0.058057662 0.10230678 -0.20614144 -0.17197923 -0.18960935 0.023567058 -0.20324996
0.044419516 0.025486762 -0.32820156 -0.041410755 -0.32649502 -0.17337957 0.62088585 0.63046384
0.719525 0.76401037 0.5488305 -0.4934696 -0.6531057 0.53406936 -0.18326616 -0.9668083
0.13208544 0.19210577 0.561975 -1.0707253 0.3519013 -0.21154356 0.4506985 0.14187609
-0.45286623 0.06348548 0.056842487 -0.11742272 -2.759728 -0.0681697 -2.0009909 0.74362606
-0.27193993 0.15924035 0.9972088 -0.51807857 -0.43034175 0.03260793 -0.2790325 1.9748496
-0.9434411 -0.37463108 1.3787127 1.2911183 -0.8261928 1.6552005 -0.42203686 -0.30350295
1.7135705 -1.3229135 0.51716125 -0.32466483 0.084631406 1.1546 -1.5949411 0.14972834
-0.15781191 -0.70188576 1.0778241 1.5353298 -0.46570325 -2.9782076 -0.8043781 -0.32864153
-1.3418742 -0.83256406 0.09920963 -1.2361293 -0.63271046 0.056083474 0.004779033 -0.7959884
-1.3364291 -1.3445129 -0.25050622 -0.22678833 0.8159832 0.3130016 -0.17732911 1.1261343
-0.27395484 -0.5230918 -1.026898 0.111068934 1.1858459 -0.46075305 0.21619023 -0.024766836
0.6362657 0.54633176 0.57412285 -1.1932863 -0.19526981 0.101125434 -0.071507394 -0.030745773
0.09118407 0.08286546 -0.098974995 -0.17673534 0.03046626 -0.076587684 -0.07732818 0.032967832
0.0128298225 -0.1599504 0.0952589 -0.1950509 0.011945919 -0.02860396 -0.08840457 -0.06896348
0.069514595 0.07704797 -0.045348287 -0.01965509 0.069004245 -0.017890692 -0.01831153 -0.07206178
-0.13916537 -0.065942004 -0.13112307 -1.1820246 0.14301713 -1.9033388 -0.4531255 -0.4491733
-1.337341 -1.0832065 -1.4615294 -0.5914379 -0.9504586 -3.258965 -3.0071282 -0.6394891
0.03347465 -0.45325947 -1.1266842 -0.3125064 0.14583041 0.7853654 0.41653788 0.72236645
1.024321 1.8958058 1.4916387 0.02512057 -0.65335214 -4.048741 -1.9656576 -1.653006
-0.3753233 -0.7742439 -0.7607669 -2.8147445 0.5324237 -2.285653 -1.452145 -1.3164792
-0.84609425 -0.33786264 1.1640265 1.6894178 -0.85277045 -0.5697232 -0.30492738 -0.026422782
00000000: e139 773d be4e 0dbe cb13 383c af8b 03bf
00000010: 0fed 9cbe 9433 7ebd 7c1d a03d 1f6f 16be
00000020: 5438 c03d 5729 efbe 1820 753d cede 0f3d
00000030: 824f 34be cef3 69be d9e3 4f3e ded9 bebd
00000040: 744e 65bf 1d81 00bf 229a d5be ce56 84bd
00000050: b64c f2bd a7d3 453e 6ccc fcbd a6e3 963d
00000060: 4ea6 7cbe 7ce8 fbbe b410 74bd f53f 3ebe
00000070: 48d6 55bf 7a33 adbf d2df 08be 872f b83d
00000080: 9e7f 1ebe 71e3 bdbc 75f7 163e a84b 90bd
00000090: 3354 563d 9233 3c3d 99ff d9bd 5dc2 10be
000000a0: b175 ca3d 11f9 24be a60f d73d 9a7b 23bd
000000b0: 6032 ab39 7c2c 303e cb4b 23be 31f5 09be
000000c0: f3be d0bd 0268 e03c ecbf 35be 6305 0fbe
000000d0: c957 dbbb e828 d0bd fe02 46bd d57b f7bd
000000e0: 7572 96bd 94fe 193c bca4 28be 9d5c f7bd
000000f0: 9079 90be 0f30 2fbe 4ae9 61be 8f4e 903e
00000100: c15a 5cbd 4110 03bf 9c57 ebbd 01d1 acbe
00000110: baeb 74be 8297 37be bc85 dbbe b69c 93be
00000120: acab b3be 942f 85be 00d4 c7bc 506b 163e
00000130: a8ad f8bd 10ca 7bbb 9fbd 5a3d 0d0e 94be
00000140: 3c15 f0ba dfcd 6dbd 3886 d13d be16 53be
00000150: 531b 30be f428 42be b40f c13c c220 50be
00000160: 3df1 353d 9dc9 d03c 090a a8be 539e 29bd
00000170: 5b2a a7be 6a8a 31be 60f2 1e3f 1466 213f
00000180: ca32 383f 2f96 433f 2880 0c3f 0ca8 fcbe
00000190: ef31 27bf c5b8 083f 20aa 3bbe c080 77bf
000001a0: 6841 073e 60b7 443e 98dd 0f3f 870d 89bf
000001b0: 682c b43e e09e 58be f4c1 e63e f747 113e
000001c0: 15de e7be ad04 823d abd3 683d 537b f0bd
000001d0: 629f 30c0 8e9c 8bbd 3c10 00c0 475e 3e3f
000001e0: b63b 8bbe e70f 233e 1349 7f3f cca0 04bf
000001f0: c155 dcbe e58f 053d 59dd 8ebe dfc7 fc3f
00000200: 5b85 71bf a5cf bfbe a879 b03f 5d43 a53f
00000210: 5f81 53bf 9cdd d33f 3715 d8be bd64 9bbe
00000220: 4756 db3f 3b55 a9bf ae64 043f 783a a6be
00000230: 3b53 ad3d efc9 933f 0827 ccbf 6352 193e
00000240: 7299 21be c9ae 33bf 24f6 893f b085 c43f
00000250: a870 eebe f49a 3ec0 b9eb 4dbf b443 a8be
00000260: 89c2 abbf eb22 55bf 6b2e cb3d 7c39 9ebf
00000270: 50f9 21bf c9b7 653d 6f99 9c3b e5c5 4bbf
00000280: 1c10 abbf 0019 acbf 5a42 80be 333b 68be
00000290: 46e4 503f bf41 a03e c395 35be 2b25 903f
000002a0: cf43 8cbe 58e9 05bf 6571 83bf 1c78 e33d
000002b0: ccc9 973f d3e7 ebbe f960 5d3e d2e3 cabc
000002c0: 4fe2 223f 66dc 0b3f b7f9 123f 9bbd 98bf
000002d0: cff4 47be da1a cf3d 7872 92bd 8fde fbbc
000002e0: b7be ba3d 5eb5 a93d 67b3 cabd 1cfa 34be
000002f0: 6194 f93c 01da 9cbd 3d5e 9ebd 4709 073d
00000300: 2d34 523c 0aca 23be 1917 c33d 6cbb 47be
00000310: d1b8 433c da52 eabc 750d b5bd ba3c 8dbd
00000320: ab5d 8e3d 53cb 9d3d 20bf 39bd b603 a1bc
00000330: 1952 8d3d 808f 92bc 1002 96bc 2095 93bd
00000340: 5e81 0ebe 9a0c 87bd 2045 06be 954c 97bf
00000350: 1573 123e 9ba0 f3bf 1100 e8be 0bfa e5be
00000360: fd2d abbf 83a6 8abf 6513 bbbf 7968 17bf
00000370: 4151 73bf e292 50c0 ca74 40c0 8fb5 23bf
00000380: b71c 093d a011 e8be 3037 90bf d700 a0be
00000390: 9154 153e b50d 493f 7444 d53e 02ed 383f
000003a0: f31c 833f c4a9 f23f 04ee be3f a7c9 cd3c
000003b0: 1642 27bf 498f 81c0 ab9a fbbf b395 d3bf
000003c0: 602a c0be d934 46bf 9fc1 42bf c624 34c0
000003d0: eb4c 083f 2448 12c0 e3df b9bf 6482 a8bf
000003e0: a299 58bf 55fc acbe d2fe 943f d83e d83f
000003f0: 2a4f 5abf 61d9 11bf 711f 9cbe 9774 d8bc

linear1.bias f4 [256]
-0.45075023 -0.23067108 -0.426575 -1.5560379 -4.5874453 -1.8799814 -0.29049572 -1.3331774
-1.5980942 -0.007295127 0.8426484 1.0912173 -0.1359962 -0.3246111 -0.27453664 -0.34710503
-0.6063477 -0.5874558 -0.12465243 -0.4004279 -0.3169105 -2.3774035 -0.60914725 -1.105265
0.18141736 -0.0008120125 1.4073366 -0.54135036 -1.3407438 -0.47513747 -0.75244087 -0.32453865
-1.1598815 -3.6888072 -0.65441865 -2.1608741 -1.700438 -3.1417449 -0.5147282 -0.65500647
-0.26419935 -0.35405537 -0.63631517 -2.6766436 -0.55332613 -0.5920355 -4.007299 -0.22538254
-0.90765375 -0.2906324 -3.1602411 -0.7685972 -0.61595565 -0.16749789 -1.0729388 -0.70448405
-0.094450705 -0.248045 -1.3896793 0.3978703 -1.6173663 -0.56567144 -0.10540493 -0.5674893
-0.2583172 -0.23010698 -0.24249065 -1.2379148 -3.297275 -3.2283432 -0.20099942 -0.42137125
-3.614395 -2.732156 -0.44409448 -3.322665 -0.8673818 -0.7652969 -1.5356966 -0.64738655
-0.28016162 -0.3500284 -1.2624999 -3.0960677 -3.7986698 -0.76729155 -2.8664849 -1.8513896
-0.36687788 -0.24164696 -1.4243835 0.19098037 -0.20587729 -0.2503575 -0.19350986 -0.43169856
-0.32388785 -2.8750832 -0.27879843 -0.49935988 2.646568 -0.31523535 -0.88959986 -1.5301316
-0.2609056 -2.0890322 -2.7206345 -0.26504913 -0.476917 -5.9465947 -0.6731816 -0.5007287
0.44904792 -1.9101684 -1.0250919 -0.0948897 -0.5860232 -2.0296073 -3.2186625 -0.24960792
-0.3516678 -0.44387895 -1.4427708 -0.21051744 -0.083724424 -0.5985212 -0.95074886 -0.30175555
-1.0713018 -1.7607265 -0.51009303 -0.44602737 -0.60695094 -1.1014622 -2.2407272 -2.3968081
-0.31201577 -0.49251777 -2.025873 -0.23986948 -0.812604 -2.1749446 -0.29057658 -0.3831602
-0.88106424 -0.4725187 -0.14480855 -1.125087 -0.50435215 -0.2060631 -0.34182748 -2.961948
-0.7158974 -0.1969883 -0.46152747 -2.690519 -5.2888775 -0.41112265 -3.081563 -3.3955529
-1.0459985 -0.33675578 -0.71472377 -3.9631321 -0.46582052 -1.7212445 -1.9518418 -3.113864
-1.2232078 -0.17890997 -0.46992967 -0.22613448 -0.84336257 -0.17217824 -0.4579473 -0.3069899
-0.33114052 -0.2880771 -0.2865716 -1.9152014 -0.29776347 -0.57951725 -0.2760619 -0.30892834
-0.5163551 -0.8806583 -1.6538634 -0.06836009 -2.7463765 -0.61303777 -0.69649273 -0.79702926
-0.5370966 -0.5215729 -0.26074114 -1.7555101 -0.73442084 1.7003115 -2.1595607 -2.35534
-3.762987 -0.2249811 -2.8237047 -0.63181657 -0.31992012 -2.7812297 -0.30240536 -0.34393495
-2.1805406 -0.37989777 -0.67157596 -0.5916161 -0.53623515 -0.5726596 -1.6376449 -2.3130023
-0.65717256 -1.227175 -0.0021248742 -0.784779 -2.4535751 -3.1165462 -1.4518803 -1.2048478
-0.49394906 -0.53827864 -0.17512901 -1.0432194 -1.7509013 -0.21999122 -0.45150486 -1.9036176
-0.29814854 -0.40605685 -0.6918935 -0.6297356 -0.96664363 -1.8397752 -2.0592494 -0.5402656
-0.15610236 -0.7920122 -0.63459414 -4.6381583 -0.9480432 -1.2646263 -2.7266974 -2.363888
-3.7490747 -0.040219154 -0.29755032 -1.0977775 -0.94480276 -0.41247177 -1.0270326 0.60086334
00000000: bcc8 e6be 0a35 6cbe 0a68 dabe 402c c7bf
00000010: 5acc 92c0 3ba3 f0bf dbbb 94be 8fa5 aabf
00000020: 5a8e ccbf f60b efbb ceb7 573f 02ad 8b3f
00000030: 9642 0bbe 6d33 a6be 1190 8cbe c0b7 b1be
00000040: 9a39 1bbf 8163 16bf c649 ffbd e304 cdbe
00000050: 1842 a2be 6127 18c0 13f1 1bbf 5379 8dbf
00000060: 79c5 393e 3ddd 54ba 9b23 b43f f095 0abf
00000070: 7e9d abbf 3845 f3be f79f 40bf ee29 a6be
00000080: ff76 94bf 6b15 6cc0 fb87 27bf c34b 0ac0
00000090: f4a7 d9bf 5912 49c0 3ac5 03bf 81ae 27bf
000000a0: 2345 87be bf46 b5be 8de5 22bf 214e 2bc0
000000b0: c8a6 0dbf a38f 17bf cb3b 80c0 aeca 66be
000000c0: ff5b 68bf c5cd 94be 6441 4ac0 c9c2 44bf
000000d0: 45af 1dbf 9184 2bbe 0f56 89bf 1159 34bf
000000e0: 5f6f c1bd 82ff 7dbe 03e1 b1bf a8b5 cb3e
000000f0: dc05 cfbf d8cf 10bf 8ade d7bd fb46 11bf
00000100: 2742 84be 2aa1 6bbe 784f 78be fe73 9ebf
00000110: 8e06 53c0 2d9d 4ec0 cbd2 4dbe f9bd d7be
00000120: 3f52 67c0 a5db 2ec0 5a60 e3be 8ba6 54c0
00000130: bc0c 5ebf 7fea 43bf b591 c4bf 20bb 25bf
00000140: 5871 8fbe ec36 b3be 9999 a1bf f925 46c0
00000150: 681d 73c0 386d 44bf 7d74 37c0 56fa ecbf
00000160: 6bd7 bbbe 4d72 77be 3352 b6bf 5c90 433e
00000170: 7fd1 52be dc2e 80be 7327 46be 9807 ddbe
00000180: a1d4 a5be 5d01 38c0 abbe 8ebe 19ac ffbe
00000190: 5f61 2940 8766 a1be d1bc 63bf 5adb c3bf
000001a0: 6b95 85be b4b2 05c0 e01e 2ec0 85b4 87be
000001b0: 772e f4be 814a bec0 a155 2cbf c22f 00bf
000001c0: 9ce9 e53e 6680 f4bf 3636 83bf 8855 c2bd
000001d0: 9e05 16bf 16e5 01c0 91fe 4dc0 3899 7fbe
000001e0: cd0d b4be 1a44 e3be b7ac b8bf e291 57be
000001f0: b677 abbd af38 19bf 4764 73bf b47f 9abe
00000200: 6b20 89bf 7c5f e1bf 7595 02bf b35d e4be
00000210: 2361 1bbf b7fc 8cbf 1368 0fc0 4e65 19c0
00000220: 88c0 9fbe 4a2b fcbe e7a7 01c0 58a0 75be
00000230: d106 50bf 4b32 0bc0 74c6 94be 932d c4be
00000240: 6d8d 61bf f9ed f1be b148 14be da02 90bf
00000250: 391d 01bf 3502 53be 0304 afbe 8e90 3dc0
00000260: 0d45 37bf 4db7 49be 544d ecbe 7731 2cc0
00000270: 7c3e a9c0 ab7e d2be 5438 45c0 bd50 59c0
00000280: 47e3 85bf 416b acbe 23f8 36bf f5a3 7dc0
00000290: 0780 eebe bd51 dcbf f4d5 f9bf 8c49 47c0
000002a0: 1392 9cbf 2d34 37be 9f9a f0be cc8f 67be
000002b0: 9ce6 57bf 7e4f 30be 1278 eabe c82d 9dbe
000002c0: 408b a9be d77e 93be 83b9 92be 5225 f5bf
000002d0: 7474 98be 3e5b 14bf fc57 8dbe db2b 9ebe
000002e0: d92f 04bf d372 61bf ccb1 d3bf 6000 8cbd
000002f0: a2c4 2fc0 0bf0 1cbf 594d 32bf 1c0a 4cbf
00000300: 2a7f 09bf cd85 05bf dd7f 85be 8eb4 e0bf
00000310: 0103 3cbf cfa3 d93f 3e36 0ac0 e4bd 16c0
00000320: c7d4 70c0 7261 66be 94b7 34c0 bbbe 21bf
00000330: 92cc a3be abff 31c0 e0d4 9abe 3e18 b0be
00000340: fa8d 0bc0 f681 c2be 67ec 2bbf 2774 17bf
00000350: b546 09bf d299 12bf 599e d1bf 3b08 14c0
00000360: 763c 28bf 1214 9dbf 7941 0bbb 47e7 48bf
00000370: 6007 1dc0 7e75 47c0 37d7 b9bf 7438 9abf
00000380: e4e6 fcbe a1cc 09bf 0555 33be 3788 85bf
00000390: 891d e0bf 6145 61be a52b e7be bea9 f3bf
000003a0: eda6 98be afe6 cfbe ef1f 31bf 5a36 21bf
000003b0: f575 77bf c17d ebbf beca 03c0 d94e 0abf
000003c0: 4cd9 1fbe 50c1 4abf c374 22bf cb6b 94c0
000003d0: f6b2 72bf 46df a1bf 3682 2ec0 f149 17c0
000003e0: d7f0 6fc0 d7bc 24bd 8458 98be f983 8cbf
000003f0: 98de 71bf 802f d3be ce75 83bf 2ed2 193f

linear2.weight f4 [4, 256]
0.013181589 0.014135042 -0.21780016 0.38985416 -0.28488052 -0.9415747 -0.022479422 0.44046733
0.008180913 0.23527536 -0.30509558 0.32372743 -0.038183343 0.016383784 0.00021113621 -0.24655946
-0.06839214 0.026030833 0.0060005453 -0.0057247165 -0.50154614 -0.58649015 -0.3469144 0.028501648
-0.31236678 -0.1844733 0.3274314 0.009473777 0.065727815 0.053241953 -0.08514611 -0.02960051
-0.35581794 -0.7291299 0.1380278 -0.13527906 0.11202003 0.01834613 -0.18530619 -0.078435734
-0.013158864 -0.06429064 -0.18470211 0.15939675 -0.03418918 -0.018984297 -0.6983381 -0.029343346
-0.20043206 -0.034774028 0.01509745 -0.010149884 -0.17833067 -0.04235283 0.009115423 -0.042648736
-0.3129647 0.00718724 0.053661246 -0.39875725 0.04035237 0.03216788 0.004404993 -0.15881425
-0.016067823 0.067075685 -0.053470492 -0.0036263138 0.05817384 0.087644935 -0.02798957 0.00825694
-0.08187332 0.7642272 0.21625546 -0.23718095 0.13880043 0.2815621 0.086315274 -0.42567232
-0.08967082 -0.022516659 -0.40244672 -0.347059 0.027139809 -0.37559077 0.3129241 0.8222639
-0.015403434 -0.03560054 -0.78447324 -0.53873855 0.05842972 0.28843597 -0.1878525 -0.25888717
-0.021265049 -0.28518647 -0.02057826 -0.03162002 0.11435516 -0.06260817 -0.110844806 -0.003636146
0.017101606 0.0050270953 -0.16129908 0.053222194 0.0038154044 -0.9724542 -0.0753044 -0.009933123
-0.54411966 -0.053648215 0.89326924 -0.009815777 0.04501838 -0.37358794 0.22838719 -0.013871956
-0.13789412 -0.08585918 -0.3483504 -0.06217486 -0.18139155 -0.10157729 0.0210625 0.06257128
1.2682415 -0.006843371 -0.0706773 -0.031179285 0.021644974 0.0024466356 0.3543373 0.59961766
-0.09684764 0.0005304256 0.9348577 -0.21622914 1.2349226 0.34065416 -0.05956959 -0.023035891
-0.25719035 0.02846722 0.028693696 -0.15984793 -0.10526787 -0.18516298 0.62560403 0.6882821
-0.45910573 -0.023102995 0.024056664 -0.044555426 -0.14545515 0.015194559 0.4225936 -0.7658245
-0.006108334 -0.016761152 -0.0041620047 -0.13206267 0.28116858 -2.1735108 0.2365088 0.06418114
0.02159194 0.041000493 -0.5247183 -0.00027051358 0.0072336537 -0.039093412 -0.012778757 -0.21861294
-0.12588292 -0.0112911 0.10724051 -0.43748656 -0.07676112 -0.048685636 0.0036743712 -0.11473038
0.056801323 0.48140994 -0.012785495 -0.034634437 -0.21410993 0.011096493 -0.05237859 -0.012728298
0.014537524 0.01088908 -0.014278275 -0.36284104 -0.00065225404 0.45526904 0.15997647 0.6546826
-0.15099192 0.022506654 0.37674868 -0.12973067 0.007529939 -0.12071952 -0.013109173 -0.025844967
0.16217296 -0.015025535 0.027272614 0.003218221 -0.026043804 -0.02977969 -0.28339428 -0.9484489
0.003752164 -0.056260146 -0.8251258 0.028975576 0.1416491 -0.4576802 -0.05642922 -0.025625896
-0.034705054 0.006801009 -0.04596864 -0.0091624735 -0.08519668 0.007995851 -0.005675666 -0.20873085
-0.048249986 0.006541872 -0.07379586 -0.034163225 0.01781609 -0.15112452 0.16834348 0.0029163898
-0.015894642 0.008400418 0.04780919 -0.39196253 0.08364933 0.3319459 -0.19370365 -0.09386013
-0.05398665 -0.020415856 -0.12856048 -0.1806343 -0.018230988 0.060462967 -0.30457985 0.18272658
00000000: 97f7 573c aa96 673c 0107 5fbe f79a c73e
00000010: dcdb 91be 0a0b 71bf c426 b8bc ef84 e13e
00000020: 3c09 063c 06ec 703e 7d35 9cbe 9abf a53e
00000030: 2366 1cbd 4937 863c 7264 5d39 157a 7cbe
00000040: 2e11 8cbd 9d3e d53c 39a0 c43b 6796 bbbb
00000050: 5465 00bf 3824 16bf c49e b1be 4a7c e93c
00000060: 8aee 9fbe 92e6 3cbe 17a5 a73e e737 1b3c
00000070: 4e9c 863d 3c14 5a3d 1561 aebd c57c f2bc
00000080: c52d b6be 42a8 3abf 2957 0d3e 9886 0abe
00000090: c26a e53d a04a 963c e8c0 3dbe eaa2 a0bd
000000a0: 4798 57bc d0aa 83bd 8d22 3dbe e738 233e
000000b0: f409 0cbd f584 9bbc 49c6 32bf 7561 f0bc
000000c0: 103e 4dbe 366f 0ebd 4c5b 773c b34b 26bc
000000d0: 519c 36be 297a 2dbd db58 153c 71b0 2ebd
000000e0: e93c a0be f082 eb3b e5cb 5b3d e929 ccbe
000000f0: 8748 253d 78c2 033d c257 903b 34a0 22be
00000100: aba0 83bc fa5e 893d e003 5bbd 73a7 6dbb
00000110: b147 6e3d 307f b33d 624a e5bc 1e48 073c
00000120: 33ad a7bd 65a4 433f 1272 5d3e 90df 72be
00000130: b321 0e3e e828 903e 10c6 b03d b9f1 d9be
00000140: 56a5 b7bd db74 b8bc 7f0d cebe b8b1 b1be
00000150: 4e54 de3c 6f4d c0be 9637 a03e e37f 523f
00000160: af5e 7cbc dfd1 11bd 3dd3 48bf c5ea 09bf
00000170: 0154 6f3d e1ad 933e 685c 40be dc8c 84be
00000180: 0a34 aebc f603 92be bd93 a8bc fe83 01bd
00000190: 0a33 ea3d b638 80bd 9a02 e3bd 684c 6ebb
000001a0: ab18 8c3c 55ba a43b 962b 25be 84ff 593d
000001b0: dd0b 7a3b c2f2 78bf 3139 9abd 8abe 22bc
000001c0: 6d4b 0bbf 3bbe 5bbd 4bad 643f 5ad2 20bc
000001d0: 3165 383d eb46 bfbe 55de 693e 3347 63bc
000001e0: 1e34 0dbe f0d6 afbd fc5a b2be 11ab 7ebd
000001f0: b5be 39be c107 d0bd 448b ac3c 5f25 803d
00000200: bd55 a23f 5b3e e0bb 43bf 90bd b36b ffbc
00000210: cd50 b13c bc57 203b b36b b53e 8b80 193f
00000220: 0e58 c6bd 420c 0b3a d652 6f3f 2c6b 5dbe
00000230: f211 9e3f 396a ae3e 3eff 73bd c4b5 bcbc
00000240: 74ae 83be 1634 e93c 0b0f eb3c 2daf 23be
00000250: ae96 d7bd 5d9b 3dbe 9627 203f 4133 303f
00000260: e80f ebbe 7e42 bdbc 7b12 c53c c07f 36bd
00000270: 32f2 14be 99f2 783c 305e d83e 130d 44bf
00000280: 6b28 c8bb af4e 89bc 6d61 88bb 703b 07be
00000290: 54f5 8f3e cd1a 0bc0 5d2f 723e 6771 833d
000002a0: 95e1 b03c 22f0 273d f053 06bf b8d3 8db9
000002b0: 4908 ed3b 6a20 20bd fe5d 51bc 12dc 5fbe
000002c0: 74e7 00be 4efe 38bc eaa0 db3d 3dfe dfbe
000002d0: ef34 9dbd 976a 47bd b8cd 703b c3f7 eabd
000002e0: 81a8 683d 5d7b f63e 417a 51bc d7dc 0dbd
000002f0: a23f 5bbe 11ce 353c ef8a 56bd 5a8a 50bc
00000300: cc2e 6e3c 1d68 323c 6def 69bc 4dc6 b9be
00000310: 07fc 2aba 0619 e93e dfd0 233e 4799 273f
00000320: a09d 1abe e05f b83c 34e5 c03e 1ed8 04be
00000330: b5bd f63b cc3b f7bd dbc7 56bc d3b8 d3bc
00000340: ab10 263e a92d 76bc d16a df3c cae8 523b
00000350: d159 d5bc 89f4 f3bc 0e19 91be 8ccd 72bf
00000360: dee6 753b 0a71 66bd 723b 53bf 305e ed3c
00000370: 760c 113e 0f55 eabe 5322 67bd 66ed d1bc
00000380: e326 0ebd 00db de3b 9d49 3cbd 331e 16bc
00000390: 997b aebd 0801 033c f0fa b9bb 8abd 55be
000003a0: c7a1 45bd 335d d63b 4922 97bd bdee 0bbd
000003b0: 0cf3 913c 63c0 1abe 3c62 2c3e e720 3f3b
000003c0: 7b35 82bc e8a1 093c 92d3 433d 50af c8be
000003d0: 5750 ab3d d0f4 a93e 405a 46be bd39 c0bd
000003e0: 1b21 5dbd 273f a7bc 5ca5 03be 33f8 38be
000003f0: 2759 95bc 04a8 773d e4f1 9bbe ad1c 3b3e

linear2.bias f4 [4]
0.6727734 -0.04538773 -0.681228 0.48930317
00000000: e13a 2c3f 7ce8 39bd f564 2ebf f285 fa3e
